polyp_segmentation.pth (torch, 601540 bytes, 7 tensors)

encoder.0.weight f4 [64, 3, 3, 3]
0.029238356 -0.2149578 -0.16993284 0.04291834 -0.1661298 -0.14784358 0.079414934 0.0695661
-0.016993651 0.025034942 -0.06417734 0.07430047 -0.050882813 -0.11954418 -0.16882612 -0.0006901761
0.103037775 0.17567047 0.058691986 0.1209062 0.12592356 -0.07060839 0.0698878 -0.019535273
0.13010868 -0.051047504 -0.141752 -0.17706521 -0.10289117 0.12750402 0.10799808 0.026972443
-0.08857554 0.1698525 -0.074313335 -0.04578561 0.13431282 -0.034883734 0.036437426 0.16238257
-0.057586428 0.09584655 0.007238889 -0.16407232 -0.024262756 0.0333836 -0.13407774 0.17591012
-0.17535153 0.15660326 -0.09712108 0.011188506 -0.12027229 -0.04026923 0.11178666 0.08324235
-0.030742344 0.02449198 0.18456474 0.18810797 -0.14093821 -0.15638113 0.058048453 -0.017719384
0.012728099 -0.14701661 -0.209309 -0.1825448 -0.020683551 -0.22658283 0.08775137 -0.06366467
-0.038948048 0.07856547 0.21597227 0.18198265 0.03854484 0.02803903 -0.1586504 -0.16256636
0.1812362 -0.23016083 0.098860174 0.10695773 -0.17718029 -0.09197014 0.017891489 -0.00830672
0.097700536 0.16460384 -0.1876693 -0.16296764 0.105069265 -0.15663446 -0.033421434 -0.08410325
0.026366731 0.23457217 0.19932945 -0.09531539 0.07582379 0.15903683 -0.049246386 0.051419728
-0.09363233 0.055456202 0.1583444 0.145211 -0.08508746 0.09899507 0.011022012 0.11698789
0.07311176 0.0006955523 -0.019829286 -0.0018777869 -0.059686247 0.012964277 -0.093229555 -0.01842577
0.07282662 0.18142007 -0.12063397 -0.04251697 0.18576135 -0.033872392 0.08504854 -0.002673857
-0.029932123 -0.12677954 -0.09077754 -0.049168117 -0.1451794 0.08755541 0.08740261 -0.16785958
-0.056325383 0.0554003 -0.06179124 -0.20028992 -0.14000274 -0.049538877 -0.19207677 0.078898266
0.16735499 0.17029183 -0.087502114 0.14567354 0.033105146 -0.14678659 0.09074307 0.15250373
0.09021266 -0.15263894 -0.14796543 0.020912793 0.02798619 -0.19873367 -0.04682517 -0.040349666
-0.057386857 0.1085315 0.18296456 0.0036925166 -0.12011511 0.024885094 0.07039132 -0.05414683
-0.010787796 0.038256403 -0.104801126 -0.0470158 -0.15285666 -0.084968805 0.1602307 0.14238691
-0.11571109 0.17647968 0.18447259 -0.057155382 -0.11214135 0.100987196 -0.07952454 0.21221091
0.063191324 0.03955011 -0.047904395 -0.013649298 -0.017068768 -0.025274796 -0.079887584 0.08060535
0.07228253 -0.18312195 -0.094124116 0.09071857 -0.107023105 0.09887128 0.15575953 0.05799305
-0.013863308 -0.08338031 -0.089656055 -0.09973406 -0.13593262 -0.09269208 0.09411024 -0.03014714
0.14670058 0.032720238 -0.15565827 0.11011748 0.057258606 0.16476382 0.1304567 0.08119784
0.05022769 -0.1551285 -0.075376764 -0.08580252 -0.03126899 0.15377723 -0.00977105 -0.11558873
-0.0825034 0.01389255 0.12161976 0.11988365 0.13423939 0.049140226 0.1620855 0.060274903
0.11958553 -0.12067737 0.12946954 -0.19117664 0.10537596 -0.12357902 0.025150176 -0.17481555
-0.008312052 -0.009143391 -0.03524897 -0.1290585 -0.111412875 -0.12400922 0.07810247 -0.08834006
0.17941184 0.057516158 -0.06874045 0.17754985 -0.06802336 -0.098861076 0.13592486 0.11478836
00000000: 4785 ef3c e61d 5cbe e002 2ebe 24cb 2f3d
00000010: ee1d 2abe 4f64 17be 4ca4 a23d ac78 8e3d
00000020: 4536 8bbc 1416 cd3c 696f 83bd d82a 983d
00000030: 7f6a 50bd 94d3 f4bd c1e0 2cbe efec 34ba
00000040: 7805 d33d f6e2 333e 0267 703d ab9d f73d
00000050: 1bf2 003e 229b 90bd 5621 8f3d 7008 a0bc
00000060: 363b 053e 3017 51bd 7027 11be 9550 35be
00000070: 9bb8 d2bd 6a90 023e 192e dd3d 50f5 dc3c
00000080: 1867 b5bd d0ed 2d3e 9731 98bd b189 3bbd
00000090: 4d89 093e 3fe2 0ebd 693f 153d 9e47 263e
000000a0: bfdf 6bbd 324b c43d 3434 ed3b 9302 28be
000000b0: b0c2 c6bc 3ebd 083d ad4b 09be c821 343e
000000c0: 5a8f 33be 9b5c 203e 6be7 c6bd ff4f 373c
000000d0: 5251 f6bd 59f1 24bd 68f0 e43d f77a aa3d
000000e0: 5ed7 fbbc 68a3 c83c 8afe 3c3e 609f 403e
000000f0: 1b52 10be 6022 20be 37c4 6d3d 3e28 91bc
00000100: 8489 503c 868b 16be 1955 56be 06ed 3abe
00000110: 8d70 a9bc 5405 68be feb6 b33d 9f62 82bd
00000120: fd87 1fbd efe6 a03d d627 5d3e a959 3a3e
00000130: 32e1 1d3d 1cb2 e53c 4075 22be cc77 26be
00000140: fb95 393e 48af 6bbe 3477 ca3d a80c db3d
00000150: c06e 35be d75a bcbd 2c91 923c e918 08bc
00000160: 3817 c83d e98d 283e 622c 40be fde0 26be
00000170: 8e2e d73d c964 20be eae4 08bd 533e acbd
00000180: 0bff d73c b033 703e 051d 4c3e b734 c3bd
00000190: 8149 9b3d 8dda 223e 94b6 49bd 7e9d 523d
000001a0: 4fc2 bfbd 0b26 633d 0925 223e 31b2 143e
000001b0: 5642 aebd edbd ca3d ab95 343c 5997 ef3d
000001c0: 9ebb 953d ba55 363a 0771 a2bc 1320 f6ba
000001d0: 9179 74bd 1e68 543c 23ef bebd a4f1 96bc
000001e0: 1f26 953d 2fc6 393e f10e f7bd 4626 2ebd
000001f0: 3938 3e3e c7bd 0abd ee2d ae3d e03b 2fbb
00000200: 3634 f5bc 7fd2 01be 93e9 b9bd 8264 49bd
00000210: e9a9 14be 4050 b33d 2400 b33d 62e3 2bbe
00000220: 72b5 66bd 6deb 623d d018 7dbd cd18 4dbe
00000230: e15c 0fbe 47e9 4abd c6af 44be 6a95 a13d
00000240: 1b5f 2b3e fb60 2e3e 4f34 b3bd 722b 153e
00000250: 4399 073d 394f 16be 81d7 b93d f029 1c3e
00000260: 6ac1 b83d 624d 1cbe 4084 17be 4e51 ab3c
00000270: 4b43 e53c d780 4bbe c0cb 3fbd b145 25bd
00000280: 7b0e 6bbd c345 de3d 105b 3b3e 26fe 713b
00000290: e9fe f5bd d3db cb3c 5329 903d 11c9 5dbd
000002a0: 4cbf 30bc bfb2 1c3d f9a1 d6bd a493 40bd
000002b0: 7586 1cbe 2004 aebd 8413 243e e0cd 113e
000002c0: f0f9 ecbd 17b7 343e 62e6 3c3e c31b 6abd
000002d0: 5daa e5bd 60d2 ce3d c3dd a2bd d14d 593e
000002e0: 746a 813d 4cff 213d 6637 44bd 4ea1 5fbc
000002f0: cdd3 8bbc 170d cfbc 1a9c a3bd 6b14 a53d
00000300: dd08 943d 5284 3bbe 25c4 c0bd a8ca b93d
00000310: ee2e dbbd 077d ca3d 6d7f 1f3e 1f8a 6d3d
00000320: ee22 63bc 4cc3 aabd 989d b7bd 5f41 ccbd
00000330: ec31 0bbe 58d5 bdbd dfbc c03d 23f7 f6bc
00000340: ad38 163e a805 063d e264 1fbe 4685 e13d
00000350: 0088 6a3d d9b7 283e 7196 053e 0e4b a63d
00000360: 8dbb 4d3d 01da 1ebe 225f 9abd 3bb9 afbd
00000370: ea13 00bd c777 1d3e c116 20bc c9b9 ecbd
00000380: 8bf7 a8bd 949d 633c c813 f93d 8f85 f53d
00000390: 0d76 093e 4347 493d bef9 253e d1e2 763d
000003a0: 42e9 f43d b225 f7bd aa93 043e cfc3 43be
000003b0: 5acf d73d ff16 fdbd be07 ce3c d902 33be
000003c0: 462f 08bc 29ce 15bc 3961 10bd e927 04be
000003d0: 6f2c e4bd 8cf8 fdbd 30f4 9f3d a2eb b4bd
000003e0: bdb7 373e 1096 6b3d cbc7 8cbd a1cf 353e
000003f0: d54f 8bbd ad77 cabd e32f 0b3e 2916 eb3d

encoder.0.bias f4 [64]
-0.204125 -0.121779725 -0.13180459 0.04713199 -0.120640896 -0.044114884 -0.057106305 0.22283554
0.19890028 0.07776431 -0.039526504 0.13685217 -0.11157819 0.12507965 -0.11672711 0.095784694
-0.07581069 -0.14052005 -0.03511568 -0.035060614 -0.06773196 0.08750937 0.1266191 0.023476234
-0.1738581 0.044297468 -0.13063975 -0.14307517 -0.04184575 0.12891164 0.051630568 -0.037154555
-0.1359738 -0.07459399 -0.11759882 -0.10013251 -0.13330665 0.006214291 -0.1729547 -0.09608488
-0.11465305 0.07023639 -0.06502369 0.13883282 -0.19739485 -0.07552984 0.13473628 -0.0052690823
0.22577672 0.22716798 -0.20228939 -0.00272292 -0.057194058 0.045873288 0.12048595 -0.11824419
0.16331655 0.07577573 0.03888245 -0.23777051 -0.15247239 0.09876653 0.16006012 0.06513974
00000000: 2506 51be a667 f9bd c8f7 06be 790d 413d
00000010: 9312 f7bd cfb1 34bd 4de8 69bd 002f 643e
00000020: 84ac 4b3e e542 9f3d 8be6 21bd fa22 0c3e
00000030: 1b83 e4bd e114 003e a00e efbd c42a c43d
00000040: a342 9bbd 7de4 0fbe 76d5 0fbd b89b 0fbd
00000050: 0eb7 8abd 1d38 b33d 70a8 013e 3b51 c03c
00000060: dc07 32be 4371 353d 6dc6 05be 4c82 12be
00000070: 7366 2bbd 6a01 043e 937a 533d 602f 18bd
00000080: b73c 0bbe bcc4 98bd a6d7 f0bd 4612 cdbd
00000090: 8a81 08be 40a1 cb3b 091b 31be 26c8 c4bd
000000a0: 38cf eabd 19d8 8f3d 242b 85bd 312a 0e3e
000000b0: e021 4abe 64af 9abd 4ff8 093e 44a8 acbb
000000c0: 0332 673e b99e 683e f324 4fbe 0473 32bb
000000d0: 5144 6abd a1e5 3b3d 56c1 f63d 032a f2bd
000000e0: 743c 273e 4e30 9b3d 3443 1f3d 1d7a 73be
000000f0: b921 1cbe 1b46 ca3d cde6 233e fc67 853d

encoder.2.weight f4 [128, 64, 3, 3]
0.026418855 0.20234573 0.19059709 0.09208092 0.11518444 0.17388536 0.05755945 0.10532923
0.12022221 -0.0034598138 0.010687669 0.035935313 0.070969105 0.059533387 0.064267725 0.07372174
0.0876845 0.124218784 -0.10977313 -0.096911736 -0.16518366 -0.09279698 -0.06458709 -0.1005544
-0.1131588 0.0010275851 -0.014109449 -0.42068708 -0.17662513 -0.18937059 -0.36922988 0.0017415732
-0.0047195205 -0.38656858 -0.17557675 -0.154549 -0.017875804 -0.002958993 0.0130725885 -0.011069977
-0.045341615 0.0011950978 0.0069195484 -0.031256855 0.017735988 -0.025573116 -0.0011941269 0.037238687
0.004810031 -0.037358683 -0.007678334 0.0130153755 -0.014278627 0.02516901 -0.051297557 -0.055271335
0.14106953 -0.090802304 -0.034855902 0.14598085 -0.028251136 -0.08755389 0.13450676 0.08487432
0.096237324 0.061378524 0.07341401 0.11492642 0.13140233 0.038287543 0.10191844 0.110639766
-0.043692112 -0.0011059343 0.0021247817 -0.018828172 -0.032141767 0.022645146 -0.06205769 0.018173277
-0.006173861 0.095069446 0.13145532 0.0020695988 0.15941195 0.08637103 -0.023895884 0.016322082
0.035570584 -0.17574084 -0.07656171 -0.020202525 0.025638621 -0.0022665292 -0.015159484 0.11760685
-0.014055673 -0.0038308376 0.07501077 -0.039221458 -0.017151361 -0.057418622 0.033321824 0.05492274
-0.0035327228 -0.0026734183 -0.0017601225 -0.008218899 -0.041628335 -0.008667002 -0.0098914495 -0.026655298
0.0009783745 0.016067741 -0.0585607 -0.015137281 0.055143695 -0.014010929 -0.017621685 0.025624437
-0.048768524 -0.04166429 0.08475738 -0.023356233 0.021792559 0.036949996 -0.079706356 -0.08354457
-0.10846 -0.052398153 -0.041622743 -0.070480436 -0.05252286 -0.087764405 -0.054673202 -0.05285296
-0.0062524006 -0.04343851 -0.029348522 -0.019437196 -0.0128602125 -0.022511536 0.046127044 -0.04255627
-0.04624132 -0.117940575 -0.057206172 -0.00047272348 -0.044470277 -0.0026398473 0.016281892 -0.016487721
0.030388497 -0.028121062 0.020222718 0.13683213 -0.01652366 0.032030378 0.15992711 -0.037232596
-0.014849199 0.1253386 0.060212955 0.0791046 0.118049935 -0.07801476 0.010251479 0.108731635
-0.10937731 -0.18257569 -0.053129356 -0.11873007 -0.09407605 -0.182144 -0.052392453 0.020315057
0.01730997 -0.107794076 0.030074127 0.07168506 -0.0604244 0.0038422393 0.088955924 -0.06541082
-0.053700432 0.1224855 0.045061596 0.034103055 0.17013115 -0.0021867445 0.0454558 0.0493333
0.028874481 0.011381986 0.06615168 0.016439706 -0.015201481 0.044077776 0.14543378 0.19347335
0.11567251 0.18626523 0.22555849 0.1900868 0.12766543 0.22582698 0.2833198 0.14323147
0.08826774 0.10311337 0.13922152 0.10559728 0.14449583 0.03462071 0.06962654 0.15075038
-0.049347512 0.028808858 0.025242746 -0.055102333 -0.034937765 0.023870619 -0.025989069 -0.02648442
-0.017839063 0.032473598 -0.016785253 0.104687646 -0.045046818 -0.01798718 0.17083693 0.017445177
-0.01531573 0.2134037 -0.004052045 0.017336706 0.038764205 -4.4546672e-05 -0.04902382 0.031699155
-0.016552055 -0.00026642217 -0.039285883 0.07777898 0.09827649 0.04818606 0.06657959 0.076793395
0.09089819 0.027978458 0.04287877 0.11371576 0.033245 0.07031008 0.12215672 0.12852487
00000000: 5b6c d83c b833 4f3e e22b 433e ec94 bc3d
00000010: d2e5 eb3d 010f 323e 75c3 6b3d dab6 d73d
00000020: 1037 f63d 0bbe 62bb 551b 2f3c e830 133d
00000030: 4058 913d 48d9 733d cc9e 833d 6cfb 963d
00000040: ee93 b33d 6b66 fe3d bcd0 e0bd a979 c6bd
00000050: e825 29be 580c bebd 3c46 84bd 77ef cdbd
00000060: cdbf e7bd 09b0 863a 522b 67bc 4c64 d7be
00000070: 38dd 34be 5dea 41be b30b bdbe 8045 e43a
00000080: 35a6 9abb 51ec c5be 64ca 33be 1842 1ebe
00000090: 4770 92bc aaeb 41bb 692e 563c d95e 35bc
000000a0: 21b8 39bd d4a4 9c3a 61bd e23b 3007 00bd
000000b0: 104b 913c b67e d1bc 4084 9cba 9887 183d
000000c0: 779d 9d3b 6b05 19bd 899a fbbb 713e 553c
000000d0: e7f0 69bc 3d2f ce3c 631d 52bd 3264 62bd
000000e0: 8874 103e 8ff6 b9bd 10c5 0ebd 017c 153e
000000f0: ed6e e7bc 744f b3bd 24bc 093e 96d2 ad3d
00000100: 1318 c53d 0c68 7b3d 165a 963d 8b5e eb3d
00000110: 558e 063e 66d3 1c3d 9dba d03d 1a97 e23d
00000120: 80f6 32bd fff4 90ba ec3f 0b3b 8a3d 9abc
00000130: 16a7 03bd 5082 b93c 3430 7ebd 20e0 943c
00000140: 1a4e cabb c5b3 c23d 399c 063e 1ba2 073b
00000150: e33c 233e 4be3 b03d 4dc1 c3bc e3b5 853c
00000160: 76b2 113d 68f5 33be 63cc 9cbd c47f a5bc
00000170: 1608 d23c 0d8a 14bb 7c5f 78bc dcdb f03d
00000180: c449 66bc ca0e 7bbb 3f9f 993d aea6 20bd
00000190: 0381 8cbc ca2f 6bbd 777c 083d abf6 603d
000001a0: 4185 67bb 8434 2fbb e9b3 e6ba 90a8 06bc
000001b0: 7982 2abd 0b00 0ebc bf0f 22bc 365c dabc
000001c0: cd3c 803a 7fa0 833c 58dd 6fbd 5c02 78bc
000001d0: 5bde 613d 188e 65bc 5a5b 90bc 57ea d13c
000001e0: 81c1 47bd 2da8 2abd 4795 ad3d 9255 bfbc
000001f0: 4f86 b23c e158 173d 163d a3bd 6a19 abbd
00000200: 4720 debd 729f 56bd 9c7c 2abd 0c58 90bd
00000210: 3622 57bd d3bd b3bd 02f1 5fbd 587c 58bd
00000220: f0e0 ccbb 94ec 31bd 506c f0bc c13a 9fbc
00000230: a4b3 52bc 1d6a b8bc b6ef 3c3d 7c4f 2ebd
00000240: 8a67 3dbd d48a f1bd 0551 6abd dfd7 f7b9
00000250: 7726 36bd 4a01 2dbb 9a61 853c 4211 87bc
00000260: 4cf1 f83c 245e e6bc 1daa a53c b91d 0c3e
00000270: a05c 87bc 4932 033d efc3 233e 3581 18bd
00000280: 0e4a 73bc c358 003e dca1 763d 9801 a23d
00000290: 2ac4 f13d 34c6 9fbd d2f5 273c b1ae de3d
000002a0: 3601 e0bd 1ff5 3abe 2b9e 59bd c028 f3bd
000002b0: f2aa c0bd f583 3abe 7899 56bd c36b a63c
000002c0: a3cd 8d3c 24c3 dcbd 045e f63c 9ecf 923d
000002d0: 937f 77bd 14ce 7b3b 862e b63d 1cf6 85bd
000002e0: fcf4 5bbd aed9 fa3d 8292 383d a5af 0b3d
000002f0: dc36 2e3e 7c4f 0fbb dc2f 3a3d b711 4a3d
00000300: 2d8a ec3c 827b 3a3c 887a 873d 90ac 863c
00000310: a20f 79bc e68a 343d 98ec 143e e11d 463e
00000320: b5e5 ec3d 50bc 3e3e cef8 663e 1da6 423e
00000330: baba 023e 303f 673e 4b0f 913e 45ab 123e
00000340: b8c5 b43d 1a2d d33d 1690 0e3e 6343 d83d
00000350: b7f6 133e 72ce 0d3d 5c98 8e3d 4f5e 1a3e
00000360: 9e20 4abd 8e00 ec3c e0c9 ce3c fcb2 61bd
00000370: e71a 0fbd 518c c33c 07e7 d4bc dbf5 d8bc
00000380: 3a23 92bc 0903 053d 3a81 89bc 7a66 d63d
00000390: 0383 38bd da59 93bc e0ef 2e3e 30e9 8e3c
000003a0: d4ee 7abc 8086 5a3e 04c7 84bb b505 8e3c
000003b0: 37c7 1e3d a0d7 3ab8 33cd 48bd f9d6 013d
000003c0: 2d98 87bc 94ae 8bb9 3cea 20bd 964a 9f3d
000003d0: 2f45 c93d bf5e 453d e15a 883d db45 9d3d
000003e0: d528 ba3d 1433 e53c a6a1 2f3d cfe3 e83d
000003f0: e92b 083d bbfe 8f3d 4d2d fa3d 069c 033e

encoder.2.bias f4 [128]
-0.036033455 0.05015283 -0.0018198395 -0.04926619 0.070573434 0.012234684 0.0028722796 -0.0427433
-0.042635024 0.042387962 0.019245155 0.022211023 0.0061257523 0.0040146275 -0.0282212 0.08745233
0.049529783 0.0045758 0.040837687 -0.006677673 0.053710546 0.012414072 -0.004054951 0.053148795
0.04780589 0.06438426 0.067527406 0.050104424 -0.032339975 0.06694695 0.06588842 0.014997689
0.032182634 0.024243219 0.016996989 -0.031540476 -0.040038418 0.013983398 -0.045167588 -0.03444787
-0.031271797 -0.009868276 -0.03319851 -0.009819448 -0.014124017 -0.0016390228 0.019313311 0.021361902
0.04530744 0.0032333557 0.05250134 0.059148468 0.024476673 -0.0042043445 -0.029879915 -0.028794024
0.04782833 -0.048721045 -0.009799112 -0.034424704 -0.027768074 0.039848443 0.069016285 -0.023434017
-0.0057901284 0.023348983 -0.02720363 0.026147742 0.022026537 -0.00999381 -0.079913914 0.040337462
-0.016243039 0.02135422 -0.0043418747 0.018407017 0.03092155 0.07633121 -0.003613445 0.0320261
-0.041254558 0.031281807 0.009862073 -0.003470127 0.013549294 0.04403876 -0.08957706 -0.043646336
0.06239153 -0.030399397 0.014234477 -0.033840064 -0.032973345 0.042204563 -0.025418105 -0.037157804
0.059602946 0.031405903 -0.04026879 0.007591687 -0.029585782 -0.004878148 0.0020438537 -0.032348067
-0.015679799 0.053732347 -0.0038006245 -0.01648767 0.0012018781 0.02699197 -0.010822526 0.053689945
0.045950796 -0.016684234 0.028895559 -0.03699642 0.026199821 0.0056498563 -0.038331952 -0.006967378
-0.027707227 0.013927968 -0.0457922 0.0023381768 0.052535888 0.011766304 0.07057596 0.016183874
00000000: d197 13bd 0e6d 4d3d ae87 eeba 58cb 49bd
00000010: ce88 903d fc73 483c db3c 3c3b 9913 2fbd
00000020: 10a2 2ebd 009f 2d3d 04a8 9d3c e4f3 b53c
00000030: 89ba c83b 238d 833b 2530 e7bc 351a b33d
00000040: bedf 4a3d 98f0 953b 6b45 273d 62d0 dabb
00000050: 97ff 5b3d 6464 4b3c 65df 84bb 8db2 593d
00000060: 1cd0 433d e5db 833d cf4b 8a3d 4c3a 4d3d
00000070: ec76 04bd 7c1b 893d 82f0 863d deb8 753c
00000080: f0d1 033d b799 c63c 453d 8b3c 9630 01bd
00000090: 53ff 23bd 9f1a 653c a601 39bd 3619 0dbd
000000a0: db16 00bd 8dae 21bc 29fb 07bd c0e1 20bc
000000b0: 6c68 67bc 7bd4 d6ba f336 9e3c 28ff ae3c
000000c0: 4b94 393d b5e6 533b a50b 573d aa45 723d
000000d0: 4e83 c83c 99c4 89bb b9c6 f4bc 72e1 ebbc
000000e0: a4e7 433d b88f 47bd 748c 20bc eb00 0dbd
000000f0: df79 e3bc 1f38 233d 6958 8d3d b2f8 bfbc
00000100: 1ebb bdbb 5e46 bf3c 26da debc ca33 d63c
00000110: ff70 b43c 14bd 23bc e8a9 a3bd e538 253d
00000120: 1f10 85bc 0cef ae3c 4946 8ebb 50ca 963c
00000130: 314f fd3c 8a53 9c3d 8ccf 6cbb cd2d 033d
00000140: 8afa 28bd 5a21 003d 8894 213c 126b 63bb
00000150: dcfd 5d3c fd61 343d 2d74 b7bd 80c6 32bd
00000160: 438e 7f3d 2808 f9bc b937 693c e19b 0abd
00000170: 0f0f 07bd b1de 2c3d a139 d0bc c832 18bd
00000180: 3822 743d 7aa3 003d e3f0 24bd b0c3 f83b
00000190: e25d f2bc dfd8 9fbb 2df2 053b 687f 04bd
000001a0: ec72 80bc 7316 5c3d e613 79bb 2611 87bc
000001b0: 5688 9d3a 441e dd3c f750 31bc fde9 5b3d
000001c0: e736 3c3d 60ad 88bc 61b6 ec3c 8f89 17bd
000001d0: 02a1 d63c 6e22 b93b f701 1dbd 9a4e e4bb
000001e0: 44fa e2bc 2232 643c 9a90 3bbd 193c 193b
000001f0: df2f 573d 75c7 403c 218a 903d 0b94 843c

decoder.0.weight f4 [64, 128, 3, 3]
-0.036187142 0.014896818 0.014940618 -0.019349385 -0.036510814 -0.025513023 -0.039333902 -0.00719609
0.0017295373 -0.0088965045 -0.002696307 0.003047985 0.008359037 -0.013591028 0.01280389 -0.004034429
0.004293086 -0.027928632 -0.027597146 -0.027266588 0.017378265 -0.015937526 -0.018324135 0.011079768
-0.0016713956 -0.027432363 0.0032552714 0.007195466 0.016861988 0.011461122 -0.015356029 0.014216065
-0.011455966 -0.0098816855 -0.026160723 -0.018422289 -0.013520148 0.020352803 -0.03239819 -0.026829232
-0.020138228 0.02219707 0.010010245 -0.009278232 0.01997457 0.01940037 0.010003262 -0.01331242
0.01972389 -0.022184439 -0.0007432206 -0.02340254 -0.0054698386 0.008280841 -0.012296835 -0.020727193
-0.04565022 -0.04235169 -0.00073223055 -0.023621557 -0.018961864 -0.029404746 -0.05051879 -0.009237609
0.006187506 0.005903895 -0.0053159194 0.009088905 -0.033995505 0.02028289 -0.010212554 0.0024821656
-0.0058861556 0.021366693 0.016286748 -0.0020220098 -0.008611792 0.013162213 0.016279852 0.014250189
0.012881982 0.009231893 0.0064535076 -0.018995434 -0.01349762 0.008924213 -0.032176018 -0.01945554
-0.02204463 0.015651824 0.009878471 -0.015416974 -0.016598616 0.0077301217 0.019231055 -0.011210965
-0.031879347 -0.009824211 0.006504235 -0.011045059 -0.010613648 0.0014379027 -0.01757001 0.0058572707
-0.01577938 0.0032593643 -0.03339799 -0.0006406105 -0.018367792 -0.01601318 -0.009762749 0.0048045055
0.021716872 0.0050471392 -0.0105135 -0.013617772 -0.0025567533 0.010001466 0.013750341 0.001389032
0.0076496103 -0.034144294 0.01615503 -0.011436651 0.0065089418 0.004970139 -0.03171264 -0.015237952
-0.012530382 -0.012229699 -0.007170261 -0.034103274 -0.00794949 -0.0010304418 -0.021928938 0.0074997908
0.01167451 0.01524341 -0.030442147 -0.027404252 7.265093e-05 -0.00764947 -0.035624735 0.021871157
-0.0036379148 0.0006283792 -0.008340387 0.009566504 -0.009141375 -0.031094326 -0.032897867 0.0054392186
-0.014988979 0.0063612363 -0.030950595 0.0007145995 0.006221562 -0.023731956 -0.027916823 -0.017539475
0.00086495123 0.008600527 -0.006767616 0.009060747 -0.0004335675 -0.025001233 -0.025285944 0.017813724
0.0025864074 -0.029623462 -0.027059795 0.005618257 -0.018824244 0.02156687 0.0078053735 -0.016619416
0.0024129848 -0.01626185 -0.020288864 0.00415198 -0.011167759 0.0028114459 -0.004294417 -0.015726248
0.012373795 -0.032430418 -0.0072129555 -0.0010021018 0.01936316 -0.00045321885 -0.008713219 -0.013388082
0.015468223 -0.025418632 -0.017022813 0.02245985 -0.0071243695 0.002634425 -0.032203168 -0.018054629
0.022456205 0.010768608 -0.028451255 -0.03174223 -0.012966716 0.001410182 0.011182149 0.008317077
-0.01607546 -0.0021687152 0.006094833 -0.033889305 -0.00821338 0.008706102 0.013157227 0.016500736
-0.011990787 0.007988976 -0.0001977696 -0.0019838065 0.020980513 -0.016167492 -0.025219055 -0.025828406
-0.016732005 0.017853089 0.015391395 -0.010776929 -0.028525898 -0.0067599993 -0.017377783 -0.033236954
-0.0065412 -0.031504747 0.010942292 -0.013614812 -0.03140864 0.01698064 -0.032371935 -0.02339356
-0.008374911 0.005985812 -0.00074689 -0.014520824 -0.007724597 0.02200955 -0.012736414 -0.029422835
-0.0012514918 -0.0053098327 -0.028383067 -0.020305889 -0.021803075 -0.021675136 -0.01516119 0.013124139
00000000: f838 14bd c911 743c 7ec9 743c 9a82 9ebc
00000010: 5d8c 15bd b000 d1bc 961c 21bd 2ecd ebbb
00000020: a4b1 e23a a5c2 11bc 86b4 30bb b4c0 473b
00000030: 58f4 083c e7ac 5ebc 68c7 513c 3e33 84bb
00000040: 04ad 8c3b 96ca e4bc 6913 e2bc 2e5e dfbc
00000050: dd5c 8e3c 6a8f 82bc 7f1c 96bc ea87 353c
00000060: bb12 dbba d6b9 e0bc 6456 553b f2c7 eb3b
00000070: 2722 8a3c 6ec7 3b3c db97 7bbc 80ea 683c
00000080: ceb1 3bbc cbe6 21bc 034f d6bc 57ea 96bc
00000090: 9c83 5dbc ecba a63c f7b3 04bd fac8 dbbc
000000a0: edf8 a4bc a1d6 b53c 0302 243c ba03 18bc
000000b0: b6a1 a33c 86ed 9e3c b9e4 233c 561c 5abc
000000c0: ff93 a13c 24bc b5bc b1d4 42ba afb6 bfbc
000000d0: 553c b3bb 5dac 073c aa78 49bc 13cc a9bc
000000e0: bafb 3abd f778 2dbd 29f3 3fba ff81 c1bc
000000f0: e955 9bbc 39e2 f0bc caec 4ebd 5759 17bc
00000100: 90c0 ca3b 7675 c13b 2a31 aebb a1e9 143c
00000110: df3e 0bbd 4e28 a63c 8e52 27bc d4ab 223b
00000120: a7e0 c0bb 3409 af3c c96b 853c b283 04bb
00000130: 7918 0dbc 53a6 573c 535d 853c a079 693c
00000140: f30e 533c 5e41 173c f277 d33b 509c 9bbc
00000150: 1f25 5dbc dd36 123c 00cb 03bd 3a61 9fbc
00000160: f196 b4bc 4138 803c 4fd9 213c 7a97 7cbc
00000170: d2f9 87bc f64c fd3b 728a 9d3c 32ae 37bc
00000180: eb93 02bd baf5 20bc 7a21 d53b 56f6 34bc
00000190: dee4 2dbc 0278 bc3a fbee 8fbc 59ee bf3b
000001a0: c243 81bc 0f9b 553b 55cc 08bd a5ee 27ba
000001b0: 0d78 96bc 132e 83bc f0f3 1fbc 1d6f 9d3b
000001c0: 95e7 b13c 7962 a53b d140 2cbc 131d 5fbc
000001d0: 348f 27bb 30dd 233c 1c49 613c 2e10 b63a
000001e0: 95a9 fa3b e3da 0bbd 8e57 843c cb60 3bbc
000001f0: f648 d53b 8cdc a23b 1de5 01bd 9aa8 79bc
00000200: 3b4c 4dbc 135f 48bc 82f4 eabb e0af 0bbd
00000210: 943e 02bc e40f 87ba 51a4 b3bc cec0 f53b
00000220: 7246 3f3c 7fbf 793c cf61 f9bc e27e e0bc
00000230: 2c5c 9838 68a8 fabb 3eeb 11bd 242b b33c
00000240: 156a 6ebb d0b9 243a 1ea6 08bc d3bc 1c3c
00000250: b5c5 15bc 87b9 febc eabf 06bd 793b b23b
00000260: 5694 75bc eb71 d03b 1a8c fdbc f653 3b3a
00000270: 3fde cb3b 8569 c2bc d2b1 e4bc f2ae 8fbc
00000280: e5bd 623a 3ae9 0c3c e1c2 ddbb 8773 143c
00000290: 7250 e3b9 63cf ccbc 7824 cfbc 16ee 913c
000002a0: b780 293b e7ac f2bc 81ac ddbc 5b19 b83b
000002b0: 4d35 9abc 01ad b03c 38c4 ff3b 7125 88bc
000002c0: 2b23 1e3b 9237 85bc d534 a6bc 550d 883b
000002d0: faf8 36bc 3c40 383b 2eb8 8cbb 55d4 80bc
000002e0: 75bb 4a3c c2d5 04bd a85a ecbb f558 83ba
000002f0: 7d9f 9e3c 019e edb9 e4c1 0ebc b059 5bbc
00000300: 6e6e 7d3c bc3a d0bc 6d73 8bbc b8fd b73c
00000310: 8b73 e9bb 51a6 2c3b 78e7 03bd 4de7 93bc
00000320: 13f6 b73c d16e 303c 9b12 e9bc 2404 02bd
00000330: 5972 54bc dbd5 b83a 5535 373c 5944 083c
00000340: afb0 83bc 0121 0ebb 2ab7 c73b 83cf 0abd
00000350: 6a91 06bc 0aa4 0e3c 6991 573c 8d2c 873c
00000360: 0275 44bc 32e4 023c 5f60 4fb9 c002 02bb
00000370: 53df ab3c b071 84bc 3198 cebc 1896 d3bc
00000380: 8f11 89bc a440 923c 312c 7c3c b791 30bc
00000390: 25af e9bc fc82 ddbb da5b 8ebc 7923 08bd
000003a0: 9057 d6bb 1f0b 01bd 4d47 333c a910 5fbc
000003b0: 59a6 00bd fc1a 8b3c 6f98 04bd daa3 bfbc
000003c0: ec36 09bc a124 c43b f0ca 43ba c0e8 6dbc
000003d0: 9e1e fdbb 5f4d b43c 64ac 50bc 2808 f1bc
000003e0: 1909 a4ba 1bfe adbb 9b83 e8bc 8958 a6bc
000003f0: 5d9c b2bc 0e90 b1bc a466 78bc a106 573c

decoder.0.bias f4 [64]
-0.010481257 0.00900895 -0.034396242 0.06667223 0.08325477 0.027311735 -0.032315817 -0.015650786
-0.014987456 -0.034094915 0.04265824 0.032656163 0.060903892 -0.003920571 0.06648574 -0.0017156196
0.07079084 0.082891926 0.052426632 0.124753475 0.038267784 0.014014084 0.050510377 0.045975164
0.05024343 0.060700826 0.04423018 -0.023615442 0.0639014 0.0098023545 0.0028103797 0.17084992
-0.01992604 -0.023275577 0.05459802 0.042223893 0.118353985 -0.006464413 0.087646306 0.07058636
0.10586701 0.052890994 0.059439074 -0.0378106 0.035910778 -0.007538332 0.03199206 0.11685604
-0.003563929 0.08023118 0.06287632 0.05038419 0.087728284 0.019109767 0.009137279 0.11525427
0.11475323 0.070492476 0.07925888 0.016797775 0.04538215 0.085875235 0.0037759845 -0.028711412
00000000: 94b9 2bbc 469a 133c 13e3 0cbd 738b 883d
00000010: 7a81 aa3d dcbc df3c 975d 04bd 1436 80bc
00000020: f28d 75bc 1ca7 0bbd 68ba 2e3d 78c2 053d
00000030: 5c76 793d 2278 80bb ad29 883d a4de e0ba
00000040: cafa 903d 3ec3 a93d 4fbd 563d c07e ff3d
00000050: aebe 1c3d 549b 653c f8e3 4e3d 7450 3c3d
00000060: 0ecc 4d3d 6ea1 783d b52a 353d 2c75 c1bc
00000070: bdde 823d 0e9a 203c 592e 383b 48f3 2e3e
00000080: ef3b a3bc 6cac bebc 2ca2 5f3d f6f2 2c3d
00000090: 9363 f23d 6dd3 d3bb e87f b33d 958f 903d
000000a0: ced0 d83d 3aa4 583d 6376 733d 4adf 1abd
000000b0: 2e17 133d 1d04 f7bb 1b0a 033d 3852 ef3d
000000c0: cf90 69bb 3f50 a43d 4dc5 803d a75f 4e3d
000000d0: e3aa b33d 168c 9c3c 87b4 153c 6e0a ec3d
000000e0: be03 eb3d 5c5e 903d 7b52 a23d 7d9b 893c
000000f0: a2e2 393d 5bdf af3d 8276 773b 3234 ebbc

decoder.2.weight f4 [1, 64, 1, 1]
-0.007505804 -0.0012040954 0.034980915 -0.061845917 -0.10374318 -0.036547247 0.065036476 0.07536435
0.092174426 0.031411298 -0.041360453 -0.0015742505 0.022748541 0.04366617 -0.07893444 0.034767788
-0.07205778 -0.070160404 -0.0819042 0.2103888 -0.06607637 0.18278785 -0.0028012698 -0.029315628
-0.11368568 0.059637092 -0.05043122 0.018679377 -0.11158522 0.10168053 0.010597507 0.21742573
0.036729142 0.08677818 -0.11630806 -0.066436075 0.19185656 0.082140744 0.14641462 -0.11309711
0.09552222 -0.12542152 -0.013743969 -0.0020583763 -0.12549953 0.11052751 -0.06414025 0.18481255
0.0050410507 -0.052784648 -0.06117286 0.16826361 -0.10251824 0.004154115 0.06188604 0.23858461
0.26218593 0.07651332 -0.06361047 0.13937455 -0.064088196 -0.113662444 0.05748694 0.03460062
00000000: 3ff3 f5bb bdd2 9dba 2648 0f3d 2552 7dbd
00000010: 4e77 d4bd 91b2 15bd d831 853d a058 9a3d
00000020: f2c5 bc3d 22a9 003d 9469 29bd 1557 ceba
00000030: 265b ba3c 4cdb 323d 61a8 a1bd ab68 0e3d
00000040: 0893 93bd 42b0 8fbd 64bd a7bd 2970 573e
00000050: 0c53 87bd bd2c 3b3e 8295 37bb 5427 f0bc
00000060: 0ad4 e8bd 0646 743d f890 4ebd 7e05 993c
00000070: cb86 e4bd e23d d03d 2aa1 2d3c daa4 5e3e
00000080: 4c71 163d c2b8 b13d ec32 eebd a30f 88bd
00000090: 0c76 443e 6839 a83d b7ed 153e 759f e7bd
000000a0: 27a1 c33d 806e 00be 622e 61bc d3e5 06bb
000000b0: f382 00be 3f5c e23d f75b 83bd 803f 3d3e
000000c0: 662f a53b b734 58bd 6590 7abd 4c4d 2c3e
000000d0: 15f5 d1bd 3e1f 883b 377c 7d3d 864f 743e
000000e0: 3c3d 863e 04b3 9c3d 3546 82bd 34b8 0e3e
000000f0: ac40 83bd dbc7 e8bd 6d77 6b3d 61b9 0d3d
